, Qwen2ForCausalLM(
  (model): Qwen2Model(
    (embed_tokens): Embedding(151936, 896)
    (layers): ModuleList(
      (0-23): 24 x Qwen2DecoderLayer(
        (self_attn): Qwen2SdpaAttention(
          (q_proj): Linear(in_features=896, out_features=896, bias=True)
          (k_proj): Linear(in_features=896, out_features=128, bias=True)
          (v_proj): Linear(in_features=896, out_features=128, bias=True)
          (o_proj): Linear(in_features=896, out_features=896, bias=False)
          (rotary_emb): Qwen2RotaryEmbedding()
        )
        (mlp): Qwen2MLP(
          (gate_proj): Linear(in_features=896, out_features=4864, bias=False)
          (up_proj): Linear(in_features=896, out_features=4864, bias=False)
          (down_proj): Linear(in_features=4864, out_features=896, bias=False)
          (act_fn): SiLU()
        )
        (input_layernorm): Qwen2RMSNorm((896,), eps=1e-06)
        (post_attention_layernorm): Qwen2RMSNorm((896,), eps=1e-06)
      )
    )
    (norm): Qwen2RMSNorm((896,), eps=1e-06)
    (rotary_emb): Qwen2RotaryEmbedding()
  )
  (lm_head): Linear(in_features=896, out_features=151936, bias=False)
), <class 'transformers.models.qwen2.modeling_qwen2.Qwen2ForCausalLM'>, None
model, Qwen2Model(
  (embed_tokens): Embedding(151936, 896)
  (layers): ModuleList(
    (0-23): 24 x Qwen2DecoderLayer(
      (self_attn): Qwen2SdpaAttention(
        (q_proj): Linear(in_features=896, out_features=896, bias=True)
        (k_proj): Linear(in_features=896, out_features=128, bias=True)
        (v_proj): Linear(in_features=896, out_features=128, bias=True)
        (o_proj): Linear(in_features=896, out_features=896, bias=False)
        (rotary_emb): Qwen2RotaryEmbedding()
      )
      (mlp): Qwen2MLP(
        (gate_proj): Linear(in_features=896, out_features=4864, bias=False)
        (up_proj): Linear(in_features=896, out_features=4864, bias=False)
        (down_proj): Linear(in_features=4864, out_features=896, bias=False)
        (act_fn): SiLU()
      )
      (input_layernorm): Qwen2RMSNorm((896,), eps=1e-06)
      (post_attention_layernorm): Qwen2RMSNorm((896,), eps=1e-06)
    )
  )
  (norm): Qwen2RMSNorm((896,), eps=1e-06)
  (rotary_emb): Qwen2RotaryEmbedding()
), <class 'transformers.models.qwen2.modeling_qwen2.Qwen2Model'>, None
model.embed_tokens, Embedding(151936, 896), <class 'torch.nn.modules.sparse.Embedding'>, torch.Size([151936, 896])
model.layers, ModuleList(
  (0-23): 24 x Qwen2DecoderLayer(
    (self_attn): Qwen2SdpaAttention(
      (q_proj): Linear(in_features=896, out_features=896, bias=True)
      (k_proj): Linear(in_features=896, out_features=128, bias=True)
      (v_proj): Linear(in_features=896, out_features=128, bias=True)
      (o_proj): Linear(in_features=896, out_features=896, bias=False)
      (rotary_emb): Qwen2RotaryEmbedding()
    )
    (mlp): Qwen2MLP(
      (gate_proj): Linear(in_features=896, out_features=4864, bias=False)
      (up_proj): Linear(in_features=896, out_features=4864, bias=False)
      (down_proj): Linear(in_features=4864, out_features=896, bias=False)
      (act_fn): SiLU()
    )
    (input_layernorm): Qwen2RMSNorm((896,), eps=1e-06)
    (post_attention_layernorm): Qwen2RMSNorm((896,), eps=1e-06)
  )
), <class 'torch.nn.modules.container.ModuleList'>, None
model.layers.0, Qwen2DecoderLayer(
  (self_attn): Qwen2SdpaAttention(
    (q_proj): Linear(in_features=896, out_features=896, bias=True)
    (k_proj): Linear(in_features=896, out_features=128, bias=True)
    (v_proj): Linear(in_features=896, out_features=128, bias=True)
    (o_proj): Linear(in_features=896, out_features=896, bias=False)
    (rotary_emb): Qwen2RotaryEmbedding()
  )
  (mlp): Qwen2MLP(
    (gate_proj): Linear(in_features=896, out_features=4864, bias=False)
    (up_proj): Linear(in_features=896, out_features=4864, bias=False)
    (down_proj): Linear(in_features=4864, out_features=896, bias=False)
    (act_fn): SiLU()
  )
  (input_layernorm): Qwen2RMSNorm((896,), eps=1e-06)
  (post_attention_layernorm): Qwen2RMSNorm((896,), eps=1e-06)
), <class 'transformers.models.qwen2.modeling_qwen2.Qwen2DecoderLayer'>, None
model.layers.0.self_attn, Qwen2SdpaAttention(
  (q_proj): Linear(in_features=896, out_features=896, bias=True)
  (k_proj): Linear(in_features=896, out_features=128, bias=True)
  (v_proj): Linear(in_features=896, out_features=128, bias=True)
  (o_proj): Linear(in_features=896, out_features=896, bias=False)
  (rotary_emb): Qwen2RotaryEmbedding()
), <class 'transformers.models.qwen2.modeling_qwen2.Qwen2SdpaAttention'>, None
model.layers.0.self_attn.q_proj, Linear(in_features=896, out_features=896, bias=True), <class 'torch.nn.modules.linear.Linear'>, torch.Size([896, 896])
model.layers.0.self_attn.k_proj, Linear(in_features=896, out_features=128, bias=True), <class 'torch.nn.modules.linear.Linear'>, torch.Size([128, 896])
…
model.layers.0.mlp.down_proj, Linear(in_features=4864, out_features=896, bias=False), <class 'torch.nn.modules.linear.Linear'>, torch.Size([896, 4864])
model.layers.0.mlp.act_fn, SiLU(), <class 'torch.nn.modules.activation.SiLU'>, None
model.layers.0.input_layernorm, Qwen2RMSNorm((896,), eps=1e-06), <class 'transformers.models.qwen2.modeling_qwen2.Qwen2RMSNorm'>, torch.Size([896])
model.layers.0.post_attention_layernorm, Qwen2RMSNorm((896,), eps=1e-06), <class 'transformers.models.qwen2.modeling_qwen2.Qwen2RMSNorm'>, torch.Size([896])
model.layers.1, Qwen2DecoderLayer(
  (self_attn): Qwen2SdpaAttention(
    (q_proj): Linear(in_features=896, out_features=896, bias=True)
    (k_proj): Linear(in_features=896, out_features=128, bias=True)
    (v_proj): Linear(in_features=896, out_features=128, bias=True)
    (o_proj): Linear(in_features=896, out_features=896, bias=False)
    (rotary_emb): Qwen2RotaryEmbedding()
  )
  (mlp): Qwen2MLP(
    (gate_proj): Linear(in_features=896, out_features=4864, bias=False)
    (up_proj): Linear(in_features=896, out_features=4864, bias=False)
    (down_proj): Linear(in_features=4864, out_features=896, bias=False)
    (act_fn): SiLU()
  )
  (input_layernorm): Qwen2RMSNorm((896,), eps=1e-06)
  (post_attention_layernorm): Qwen2RMSNorm((896,), eps=1e-06)
), <class 'transformers.models.qwen2.modeling_qwen2.Qwen2DecoderLayer'>, None
model.layers.1.self_attn, Qwen2SdpaAttention(
  (q_proj): Linear(in_features=896, out_features=896, bias=True)
  (k_proj): Linear(in_features=896, out_features=128, bias=True)
  (v_proj): Linear(in_features=896, out_features=128, bias=True)
  (o_proj): Linear(in_features=896, out_features=896, bias=False)
  (rotary_emb): Qwen2RotaryEmbedding()
), <class 'transformers.models.qwen2.modeling_qwen2.Qwen2SdpaAttention'>, None
model.layers.1.self_attn.q_proj, Linear(in_features=896, out_features=896, bias=True), <class 'torch.nn.modules.linear.Linear'>, torch.Size([896, 896])
model.layers.1.self_attn.k_proj, Linear(in_features=896, out_features=128, bias=True), <class 'torch.nn.modules.linear.Linear'>, torch.Size([128, 896])
…
